app/src/main/model/model.tflite (tflite, 188896 bytes, 15 tensors)

sequential/dense/BiasAdd/ReadVariableOp f4 [128]
0	0x3de734cb	0.11289366
1	0xbcabe276	-0.020982008
2	0x3ddc7ba1	0.10765768
3	0x3d65cbc2	0.05610252
4	0x3d670751	0.05640346
5	0xbc8f6f2a	-0.017509062
6	0x3dc06866	0.093949124
7	0xbe21c524	-0.1579786
8	0x3d2a4680	0.04157114
9	0x3e021fe7	0.12707482
10	0xbc3e97f0	-0.011632904
11	0x3bb66694	0.0055664275
12	0xbb7b8b26	-0.00383825
13	0x3d98080b	0.07423409
14	0xbcc9b88f	-0.024624137
15	0xba681882	-0.00088537496
16	0x3e22dc85	0.15904434
17	0x3e2c4702	0.16823962
18	0x3e0c7bdf	0.13719128
19	0xbd8e3711	-0.06944097
20	0x3c84d7c9	0.016216176
21	0xbd8e9f52	-0.06963982
22	0xbdd6dd1a	-0.104913905
23	0xbd4a3f41	-0.04937673
24	0x3e0a5c33	0.13511734
25	0xbca53e48	-0.0201713
26	0xbd0bf855	-0.034172375
27	0xbd02be29	-0.031919632
28	0xbd887d35	-0.06664506
29	0x3e17101f	0.14752243
30	0xbd0dbd40	-0.03460431
31	0xbd3d31c8	-0.046190053
32	0x3c8bef6e	0.017081942
33	0x3e04c154	0.12964374
34	0x3dc001b3	0.09375324
35	0x3e23bd36	0.15990147
36	0xbcf834fa	-0.030298699
37	0xbd7183b8	-0.058963507
38	0xbca68078	-0.02032493
39	0xbe1fae74	-0.15593892
40	0xbcf65882	-0.0300715
41	0xbced00b3	-0.028930997
42	0xbdc88fc8	-0.09793049
43	0xbde75615	-0.11295716
44	0xbd241e91	-0.040068213
45	0x3dc0b9ba	0.094104245
46	0x3d0cf877	0.034416642
47	0xbd05e63e	-0.03269028
48	0xbd84b590	-0.06479943
49	0xbdc26f0c	-0.09493837
50	0xbc96ef0d	-0.018424535
51	0xbd765698	-0.060141176
52	0x3d128b7d	0.035777558
53	0x3ca70a83	0.020390755
54	0x3dd4ab9f	0.103842966
55	0x3c7fa0d6	0.015602311
56	0xbd9d2640	-0.07673311
57	0xbd8d4c59	-0.06899328
58	0xbd73baaa	-0.05950419
59	0x3ddb4a1e	0.10707496
60	0xbcf9f64b	-0.03051295
61	0x3e468ddc	0.19390053
62	0x3e1abd65	0.15111311
63	0x3dfca253	0.123356484
64	0xbe011bfe	-0.12608334
65	0xbdd45713	-0.103681706
66	0xbda6ddac	-0.08147749
67	0xbdd33f7c	-0.10314843
68	0xbd0b8de9	-0.034070883
69	0xbd04e5d7	-0.032445755
70	0x3d5136c9	0.051077638
71	0x3dd95ce6	0.10613422
72	0xbd4e15f2	-0.050313897
73	0x3e1464db	0.14491598
74	0xbd98eb5e	-0.07466768
75	0x3d87b6ba	0.06626649
76	0x3e1b1695	0.15145333
77	0xbb9f50ee	-0.0048619425
78	0x3d39a20b	0.04532055
79	0x3c45f8f8	0.012083285
80	0xbd145890	-0.036217272
81	0xbd9c8143	-0.07641842
82	0x3e17f831	0.14840771
83	0xbcc90d32	-0.024542425
84	0xbdd73b51	-0.105093606
85	0xbbb5fa84	-0.0055535454
86	0x3d149d70	0.036282957
87	0xbe082652	-0.13295868
88	0xbdfc4c58	-0.12319249
89	0x3c3111a1	0.010807426
90	0xbceb2c31	-0.028707596
91	0xbc607d32	-0.013701724
92	0x3ce3477f	0.027744053
93	0x3ca89c1d	0.020582253
94	0xbb55d6f4	-0.0032629343
95	0xbd8b0960	-0.067888975
96	0xbd9a8e40	-0.07546663
97	0xbcf0bb22	-0.029386107
98	0x3d0c1e2e	0.03420847
99	0xbd1fb7d9	-0.03899369
100	0x3a9ea239	0.001210279
101	0xbdd5205c	-0.10406563
102	0xbcbefa95	-0.023312846
103	0x3c948a06	0.018132221
104	0xbd0eb1e3	-0.034837615
105	0xbdc2f941	-0.09520198
106	0x3dde8eca	0.108670786
107	0xbcb0cb31	-0.021581264
108	0x3d1b8576	0.037969075
109	0xbc3818c1	-0.011236371
110	0xbe1fc279	-0.15601529
111	0x3da6b5c6	0.08140139
112	0xbd479b7e	-0.048732273
113	0x3dcdfd7b	0.10058113
114	0x3d8b28fa	0.06794925
115	0x3dd690ec	0.104768604
116	0xbd56de8a	-0.052458324
117	0xbcaf225a	-0.021378685
118	0xbddbc5bf	-0.107310764
119	0x3e303f48	0.1721164
120	0xbdaa6378	-0.083197534
121	0xbc919109	-0.017769353
122	0xbe0de5f5	-0.13857253
123	0x3e17739a	0.14790192
124	0xbddec0e2	-0.10876633
125	0x3b1ebd06	0.0024221553
126	0xbdf86f30	-0.12130582
127	0xbd09e90a	-0.03366951

sequential/dense_1/BiasAdd/ReadVariableOp f4 [64]
0	0xbd83a496	-0.06427877
1	0xbd95fd71	-0.07323731
2	0x3e73424c	0.23755759
3	0xbd4fd9ac	-0.050744697
4	0xbd5928a7	-0.053017285
5	0x3e56f1f1	0.20990731
6	0xbd8d872d	-0.06910548
7	0x3e68008f	0.22656463
8	0x3e550c99	0.20805587
9	0xbd3388db	-0.043831687
10	0x3e02d8e9	0.12778057
11	0x3b0fb1ab	0.0021925967
12	0xbd4fa3e4	-0.050693408
13	0x3d9a65c5	0.07538942
14	0xbd871881	-0.065964706
15	0xbd59ccaf	-0.053173717
16	0xbdd1945f	-0.10233378
17	0x3e8f0617	0.27934334
18	0x3e2060dd	0.1566195
19	0xbd24e980	-0.040261745
20	0x3ddb636f	0.10712325
21	0xbd3e8170	-0.04651016
22	0xbd591600	-0.052999496
23	0x3e782e67	0.24236451
24	0x3ddfb599	0.10923309
25	0x3e222b55	0.15836842
26	0xbda90315	-0.08252541
27	0x3e6b1cae	0.22960159
28	0xbd0fff2b	-0.035155457
29	0x3e28f3e6	0.1649929
30	0x3d92b612	0.071636334
31	0xbce4ce40	-0.027930379
32	0x3d95dd6d	0.07317624
33	0xbd546f2b	-0.05186383
34	0x3ccca7dd	0.024982387
35	0xbdd6cd87	-0.1048842
36	0x3e946bad	0.289884
37	0xbd81d225	-0.0633891
38	0xbdbea5ed	-0.093089916
39	0xbcfcba96	-0.03085069
40	0x3e9bc27b	0.30421814
41	0x3e543cf2	0.20726374
42	0x3d2ad86e	0.04171031
43	0x3d184f89	0.037185226
44	0xbd853142	-0.06503536
45	0x3e4eec86	0.20207414
46	0xbd55425d	-0.052065242
47	0xbd89b50d	-0.06723986
48	0xbdc37867	-0.09544449
49	0xbdbdd7f0	-0.092697024
50	0xbd8ddeb8	-0.06927246
51	0xbdbb3ef7	-0.09142869
52	0xbd9e1a7d	-0.07719896
53	0xbc9762c3	-0.01847971
54	0x3e67cfd6	0.22637877
55	0xbd74aaf9	-0.059733365
56	0xbd594d87	-0.05305245
57	0xbca6a258	-0.020341083
58	0x3e5038fe	0.20334241
59	0xbdcb24f9	-0.09919161
60	0xbde4130d	-0.11136446
61	0xbcdf805a	-0.027282882
62	0x3daff812	0.085922375
63	0x3e121253	0.14264803

sequential/conv2d/BiasAdd/ReadVariableOp f4 [64]
0	0x3d971ebd	0.0737891
1	0xbbc92fc9	-0.0061397296
2	0xbd88ed36	-0.066858694
3	0xbd2fb40a	-0.042896308
4	0xbc1a46ad	-0.0094162645
5	0x3db1b9dd	0.08678029
6	0xb805142a	-3.172845e-05
7	0xbc808627	-0.015688969
8	0x3cebcf9c	0.02878552
9	0xbdb44a10	-0.08803189
10	0xbda324d1	-0.079660065
11	0xbd8e9579	-0.069621034
12	0xbc3c6349	-0.011498281
13	0xbda64476	-0.08118527
14	0xbbfa8557	-0.00764529
15	0x3e1700f6	0.1474646
16	0xbb54d800	-0.003247738
17	0x3d575145	0.05256774
18	0xbdb31548	-0.087442935
19	0xbd84dce3	-0.06487443
20	0xbda47466	-0.08030014
21	0x3d9cce79	0.07656569
22	0x3cb8b306	0.022546303
23	0xbbaa7379	-0.0052017537
24	0x3d049db2	0.032376952
25	0xbb8fa522	-0.004383699
26	0xbda5564b	-0.080731
27	0xbd65483b	-0.055977087
28	0x3d19280a	0.0373917
29	0xbd172992	-0.03690488
30	0xbdb35e02	-0.08758165
31	0xbd85cc5e	-0.065331206
32	0xbd743629	-0.059621964
33	0xbd968c03	-0.07350924
34	0xbd531290	-0.051531374
35	0xbd8ca039	-0.068664975
36	0x3d9eeeda	0.07760401
37	0xbbab6aeb	-0.0052312515
38	0x3d92fd40	0.0717721
39	0x3cceb601	0.02523327
40	0xbd8ad481	-0.06778813
41	0x3d7eff91	0.062255446
42	0x3db4f0e7	0.08835011
43	0xbda2fd09	-0.07958419
44	0xbbb8cbe0	-0.005639538
45	0x3de30ff0	0.11087024
46	0x3d017338	0.03160402
47	0xbd9af089	-0.0756541
48	0x3d03c451	0.032169644
49	0x3da09874	0.07841578
50	0x3cf5d502	0.030008797
51	0xbd4f8ff7	-0.050674405
52	0xbdaddb15	-0.08489052
53	0xbd9fa10e	-0.077943906
54	0x3d0458fd	0.03231143
55	0xbb801e1b	-0.003909839
56	0x3db4087d	0.087906815
57	0xbc921781	-0.017833473
58	0xbd9a5fbb	-0.075377904
59	0xbd36dd2e	-0.044644527
60	0xbd8e22de	-0.06940244
61	0x3d23c831	0.03998584
62	0x3d2edddf	0.04269206
63	0x3d1ecb7c	0.038768277

sequential/conv2d_4/BiasAdd/ReadVariableOp f4 [16]
0	0xbd881369	-0.06644327
1	0xbdc5f925	-0.09666661
2	0xbe0c8a6a	-0.13724676
3	0xbd86823d	-0.0656781
4	0xbdb09ba4	-0.08623436
5	0xbd85f3ae	-0.06540619
6	0xbdcdabbb	-0.100425206
7	0xbd4a50f3	-0.049393605
8	0x3db34a12	0.08754362
9	0x3e0fc95b	0.14041655
10	0xbd0521da	-0.032502986
11	0xbde25ec5	-0.11053232
12	0xbd76c4f0	-0.060246408
13	0xbd297801	-0.04137421
14	0xbd9b260b	-0.075756155
15	0xbe2639c7	-0.16232978

sequential/conv2d_3/BiasAdd/ReadVariableOp f4 [16]
0	0xbcb7f1fd	-0.022454256
1	0xbd8f4ba9	-0.06996853
2	0x3e1d128c	0.15339106
3	0xbda8fcec	-0.08251366
4	0xbd584a7d	-0.052805413
5	0xbd36f2ca	-0.044665135
6	0xbd6f6b32	-0.05845184
7	0xbc806130	-0.015671343
8	0xbd08b71b	-0.033377748
9	0xbd28b81f	-0.041191217
10	0x3da653b6	0.08121435
11	0xbcb89dcc	-0.02253618
12	0xbd3002e6	-0.042971514
13	0xbd7e4e88	-0.062086612
14	0xbd93a122	-0.07208468
15	0xbd3fce4e	-0.046827607

sequential/conv2d_2/BiasAdd/ReadVariableOp f4 [32]
0	0xbc3f6986	-0.011682874
1	0x3d07b874	0.033134893
2	0xbd5d2617	-0.053991403
3	0xbdd513a5	-0.104041375
4	0xbcd6db14	-0.026227511
5	0xbdb5a75f	-0.08869814
6	0xbc2d8548	-0.010590859
7	0xbd25f039	-0.040512297
8	0xbc36e3c7	-0.011162705
9	0x3d085627	0.033285286
10	0xbd3b2796	-0.04569205
11	0xbda43f6c	-0.08019909
12	0xbd253812	-0.040336676
13	0x3d1cd625	0.03829016
14	0xbd904956	-0.07045238
15	0xbdb70678	-0.08936781
16	0xbd532d1c	-0.05155669
17	0xbcdc134b	-0.026864668
18	0xbd9b2a5c	-0.07576439
19	0xbcb34cbf	-0.021887181
20	0xbd8a393d	-0.067491986
21	0xbda88438	-0.08228344
22	0xbbbf831e	-0.005844488
23	0x3d9e3614	0.07725158
24	0x3d3e1acc	0.046412274
25	0xbd9c6139	-0.07635731
26	0x3c2854cc	0.010274123
27	0xbd83d73c	-0.06437537
28	0xbd4ddcf8	-0.05025956
29	0xbce62d85	-0.028097877
30	0xbd0c93e7	-0.03432074
31	0x3dac3b24	0.08409718

sequential/conv2d_1/BiasAdd/ReadVariableOp f4 [32]
0	0xbcd14bf1	-0.025548907
1	0xbcc37dc7	-0.023863686
2	0xbc372d4f	-0.011180236
3	0xbba20e5f	-0.004945561
4	0xbb75fd1d	-0.00375349
5	0x3d4bd7a2	0.04976619
6	0xbd030b19	-0.031993005
7	0xbd2c54ee	-0.042073183
8	0xbda75bc0	-0.08171797
9	0xbbfa953f	-0.007647186
10	0x3cd86123	0.026413506
11	0x3c396933	0.011316585
12	0xbd200c7c	-0.039074406
13	0xbc3775d1	-0.011197523
14	0x3d22384b	0.039604466
15	0xbd00c4f9	-0.031437848
16	0xbb9c8415	-0.0047764876
17	0x3d469654	0.048483208
18	0x3d98ad51	0.074549325
19	0xbd15f17b	-0.036607247
20	0xbcf567e8	-0.029956773
21	0xbc4130f4	-0.0117914565
22	0x3c2d2ffa	0.010570521
23	0x3c0f964e	0.008763863
24	0x3d1a45f9	0.037664387
25	0xbce8ee60	-0.028433979
26	0xbbb555c2	-0.005533905
27	0x3b6b8006	0.0035934462
28	0x3b0d2f5d	0.0021543123
29	0x3d1a39ac	0.037652656
30	0xbccf9331	-0.025338741
31	0x3bf4df45	0.007472905

sequential/dense/MatMul f4 [128, 16]
0	0xbe5d4923	-0.2160993
1	0xbe827b3f	-0.25484654
2	0xbdf08b58	-0.11745328
3	0x3c959b42	0.01826251
4	0xbd2a8fda	-0.041641094
5	0x3daeafe5	0.08529643
6	0xbd816fb8	-0.06320137
7	0xbd8d0609	-0.06885917
8	0x3da27eba	0.079343274
9	0x3d97381a	0.073837474
10	0xbe612153	-0.21985368
11	0xbe04f619	-0.12984504
12	0xbdf74fcf	-0.12075769
13	0xbe5f3a45	-0.21799572
14	0xbdb1c1e9	-0.086795636
15	0xbe160221	-0.1464925
16	0x3e656b98	0.22404325
17	0x3b427d10	0.0029676594
18	0x3e28c2c3	0.16480546
19	0xbe0f1249	-0.13971819
20	0xbde811c2	-0.11331512
21	0x3da20bbd	0.07912395
22	0x3e4ff791	0.20309283
23	0xbd3f742e	-0.046741657
24	0x3bcfed3c	0.006345419
25	0xbd60fbd7	-0.054927673
26	0xbe212730	-0.15737605
27	0xbe819a60	-0.2531309
28	0xbe2c1e46	-0.16808423
29	0x3e4c9dc7	0.19982062
30	0xbd15b255	-0.036547024
31	0xbe3b68c1	-0.18301679
32	0xbe3379d7	-0.17526947
33	0xbd1f3e4b	-0.038877767
34	0xbd1c48eb	-0.038155477
35	0x3e4be782	0.19912532
36	0x3d610454	0.05493577
37	0x3de80286	0.11328606
38	0xbe0d7934	-0.13815767
39	0x3da1bdbc	0.07897517
40	0x3d0a3f58	0.033751816
41	0xbd8fdd3f	-0.07024621
42	0xbe279267	-0.16364442
43	0x3d5e144e	0.054218583
44	0xbe09c374	-0.13453466
45	0x3e417e8b	0.18895929
46	0xbe5c4ee0	-0.21514463
47	0xbe0004a7	-0.12501775
48	0x3dd5804a	0.1042486
49	0xbced6c3d	-0.028982276
50	0xbe07656f	-0.13222288
51	0xbd694138	-0.056946963
52	0xbdfb736d	-0.12277875
53	0x3e508277	0.20362268
54	0xbdba2f72	-0.09091081
55	0xbda6134b	-0.081091486
56	0x3ce92572	0.028460238
57	0xbdfc495d	-0.123186804
58	0xbe8ad879	-0.2711828
59	0xbc8e0ef0	-0.017341107
60	0xbd923aa9	-0.07140095
61	0x3cb0b4c1	0.021570565
62	0x3df3452d	0.118784286
63	0x3d79a325	0.060946602
64	0xbe37d3bd	-0.17951865
65	0xbe889a46	-0.266802
66	0xbe018078	-0.12646663
67	0x3a694cec	0.0008899707
68	0x3d2add07	0.041714694
69	0xbd3b533f	-0.045733687
70	0xbdc852c1	-0.09781409
71	0xbe2c2efa	-0.16814795
72	0x3c5dd1c9	0.013538786
73	0x3aca2192	0.0015421382
74	0xbde4bb5a	-0.11168547
75	0xbe469ca3	-0.1939569
76	0xbdded010	-0.108795285
77	0xbe576ed6	-0.21038374
78	0xbe875d84	-0.26438534
79	0xbe36627c	-0.17811006
80	0xbd4aa5b8	-0.049474448
81	0xbd965b4d	-0.07341633
82	0xbd92b2e1	-0.07163025
83	0xbdf693fc	-0.120399445
84	0x3e4a2ec8	0.19744408
85	0xbda10670	-0.07862556
86	0xbd90c8af	-0.07069527
87	0x3de705fd	0.11280439
88	0xbe2ce0a8	-0.16882575
89	0xbd07ddce	-0.033170514
90	0x3e6e60b0	0.23279071
91	0x3dc11c0e	0.09429179
92	0xbdd1b9e5	-0.10240535
93	0x3e136dd9	0.14397372
94	0xbe8dcbae	-0.27694458
95	0x3dc60f08	0.09670836
96	0xbd90c31f	-0.070684664
97	0xbdeff22f	-0.11716115
98	0x3c6d2bb7	0.014475754
99	0xbd251ccc	-0.040310666
100	0xbd86a155	-0.065737404
101	0x3e2b6bd7	0.16740356
102	0xbd647183	-0.055772316
103	0xbc5b3cd4	-0.013381202
104	0x3e461f6b	0.19347923
105	0x3e0753d5	0.13215573
106	0xbac2983a	-0.0014846392
107	0xbe6992f0	-0.22809958
108	0xbd9caefa	-0.07650562
109	0xbde68862	-0.11256482
110	0xbde20956	-0.11036937
111	0xbdf47410	-0.119362
112	0x3e4524bd	0.19252296
113	0x3dac1ec8	0.084043086
114	0xbe76b43b	-0.2409219
115	0x3db6022e	0.088871345
116	0x3d45a55c	0.048253402
117	0x3df5675c	0.11982605
118	0xbe2ea4cb	-0.17055051
119	0x3dd60d90	0.104518056
120	0x3df2f68c	0.11863431
121	0x3a89e5f3	0.0010520801
122	0xbb38e10a	-0.0028210306
123	0xbe274b5f	-0.16337346
124	0xbe2f5b20	-0.17124605
125	0x3c4a68a4	0.01235405
126	0x3e831878	0.25604606
127	0x3da5525c	0.080723494
128	0xbe42d84a	-0.1902782
129	0xbe841e8d	-0.25804558
130	0xbdccad9a	-0.09994049
131	0x3dcf50bc	0.10122821
132	0xbe11c815	-0.14236481
133	0xbd24485b	-0.040108066
134	0xbe42d9c3	-0.19028382
135	0xbd10cefa	-0.03535364
136	0x3d743143	0.059617292
137	0x3ccbd131	0.024880024
138	0xbe6b25f8	-0.22963703
139	0xbcfa047c	-0.030519716
140	0x3e2fdd1e	0.17174193
141	0xbd33429b	-0.04376469
142	0xbdb85968	-0.09001428
143	0xbe476ed6	-0.19475874
144	0x3d3fc998	0.046823114
145	0xbd1e05c0	-0.038579702
146	0xbe1ed201	-0.15509798
147	0x3d48fcc3	0.049069177
148	0xbdd95e7c	-0.106137246
149	0x3e3e956a	0.18611684
150	0xbcb14011	-0.021636995
151	0x3d9ac70a	0.07557495
152	0x3e1c555f	0.15266941
153	0xbd530e10	-0.051527083
154	0xbe501a7f	-0.20322607
155	0xbc4927b5	-0.012277533
156	0xbdbc3601	-0.09189988
157	0xbd2c86b8	-0.042120665
158	0x3b32928c	0.0027247993
159	0xbdb99848	-0.090622485
160	0x3e53570c	0.20638674
161	0x3d81f91c	0.06346342
162	0xbe1fa4ce	-0.15590212
163	0xbd09183b	-0.033470374
164	0x3e0d9d7a	0.13829604
165	0xbda82b80	-0.08211422
166	0xbda8e028	-0.082458794
167	0x3dcdaca9	0.10042698
168	0xbe5ed678	-0.21761501
169	0xbd21306b	-0.039352816
170	0x3e23c858	0.15994394
171	0xbe57f50c	-0.21089572
172	0x3e22372c	0.15841359
173	0xbd8e22c6	-0.06940226
174	0x3e88ebeb	0.2674249
175	0xbd129635	-0.03578778
176	0x3e053734	0.1300934
177	0xbddbf941	-0.10740901
178	0xbe50844b	-0.20362966
179	0xbc479673	-0.012181866
180	0x3dc52140	0.096254826
181	0xbe324e26	-0.17412624
182	0xbd155def	-0.036466535
183	0x3d425055	0.04743989
184	0xbd1b7395	-0.037952024
185	0x3c3eb9b8	0.0116409585
186	0xbd94021a	-0.07226963
187	0x3e3562d0	0.17713475
188	0xbe6f6d05	-0.23381431
189	0x3e4abbd7	0.19798218
190	0x3e81f9df	0.2538595
191	0xbd9f42d7	-0.077764206
192	0xbcc0dd8c	-0.023543142
193	0xbe1c47ec	-0.15261811
194	0x3d8085ea	0.06275542
195	0xbe37aebd	-0.17937751
196	0xbddc1686	-0.107464835
197	0x3d2b3b7b	0.041804772
198	0x3e2cf7e2	0.16891435
199	0xbdb6d72f	-0.08927762
200	0xbdacb73e	-0.08433388
201	0xbec47ec6	-0.3837797
202	0x3e69bbd0	0.22825551
203	0x3d049fcd	0.03237896
204	0xbe53036d	-0.20606776
205	0xbe335c4e	-0.1751568
206	0x3e52abfb	0.20573418
207	0xbea06341	-0.31325725
208	0xbe046d5c	-0.12932342
209	0xbe2f948a	-0.17146507
210	0xbd9b783b	-0.075912915
211	0xbce6fb4f	-0.028196005
212	0xbd8672a2	-0.06564833
213	0xbd6f3263	-0.058397662
214	0xbe32dd14	-0.17467147
215	0x3c9c5845	0.019085059
216	0x3d478ecc	0.048720166
217	0x3e109090	0.14117646
218	0xbe5cfd54	-0.21581012
219	0xbdef9b55	-0.11699549
220	0xbeb311b1	-0.34974435
221	0xbe2d875c	-0.16946167
222	0xbe1b59e2	-0.15171006
223	0xbdc4571b	-0.095869265
224	0xbe12bfc4	-0.14330965
225	0xbd72b904	-0.059258476
226	0xbcdd28ec	-0.026997052
227	0xbbde25be	-0.0067794016
228	0xbb23e5be	-0.0025008763
229	0x3d9d7e45	0.076900996
230	0x3e7027b0	0.2345264
231	0xbe40ec98	-0.18840253
232	0xbea09e74	-0.3137089
233	0xbd3fc983	-0.046823036
234	0xbe8b4dec	-0.27207887
235	0x3d29db43	0.04146887
236	0x3d52841e	0.051395528
237	0xbd1bc23a	-0.038027026
238	0x3dd4d851	0.103928216
239	0xbe72eebe	-0.23723885
240	0x3e2b0cd5	0.16704114
241	0xbe7ad8f9	-0.24496831
242	0x3da92932	0.082598105
243	0xbea722cb	-0.32643732
244	0x3e151aad	0.14560957
245	0x3e0e2c93	0.13884191
246	0xbd7366d6	-0.059424244
247	0xbcc3b062	-0.023887817
248	0x3c1fc943	0.009752574
249	0x3d0bdc0a	0.034145392
250	0x3cdfa792	0.027301583
251	0x3d99c74f	0.07508718
252	0xbedeb980	-0.435009
253	0x3e0c013d	0.13672347
254	0x3dc7c062	0.09753491
255	0x3df57615	0.11985413

sequential/dense_1/MatMul f4 [64, 128]
0	0x3e309b90	0.17246842
1	0xbc98c538	-0.018648729
2	0x3dd99425	0.106239595
3	0xbd952671	-0.07282723
4	0xbdb191d3	-0.08670392
5	0x3e139cb4	0.14415246
6	0x3d612d93	0.054975104
7	0x3cbb740a	0.02288248
8	0xbd86a3bc	-0.065741986
9	0xbe023246	-0.1271449
10	0x3dd8b350	0.10581076
11	0xbc99497a	-0.018711794
12	0x3db05877	0.08610623
13	0xbb0d7c80	-0.00215891
14	0x3cfd9dec	0.030959092
15	0x3da7b0f5	0.08188049
16	0xbd75b443	-0.059986364
17	0x3e0fe430	0.1405189
18	0x3e1d07b1	0.15334965
19	0x3e822c90	0.25424623
20	0x3db69444	0.08914998
21	0x3e186ff4	0.14886457
22	0x3d814ee4	0.06313875
23	0xbe000fd5	-0.1250604
24	0x3e0b81d7	0.13623749
25	0x3cd5fb22	0.026120726
26	0x3dddb571	0.10825623
27	0xbc7d8e28	-0.015475787
28	0x3e35c2ff	0.17750166
29	0x3e11b6ff	0.14229964
30	0x3ccbea13	0.024891889
31	0x3e5e5ff8	0.21716297
32	0x3ebdb85d	0.3705472
33	0x3e13cbc9	0.14433207
34	0xbb83ecc5	-0.004026028
35	0x3bf8692f	0.0075808982
36	0x3e8ad8b0	0.27118444
37	0x3e0405ac	0.12892789
38	0x3cecff3d	0.0289303
39	0xbda660b4	-0.081239134
40	0x3e4ccb53	0.19999437
41	0xbd85e5e4	-0.06537989
42	0x3dbdff64	0.092772275
43	0x3d24187d	0.040062416
44	0xbc5a2065	-0.0133133875
45	0x3d65b578	0.056081265
46	0x3d93438a	0.071906164
47	0x3e351b36	0.17686161
48	0x3e826287	0.25465795
49	0x3d5d795e	0.054070823
50	0x3d4bf6b1	0.04979581
51	0xbd326c4f	-0.043560322
52	0x3d27f080	0.041000843
53	0x3dcd436e	0.10022627
54	0xbcd56b99	-0.026052283
55	0x3e1916d7	0.14950119
56	0x3e7f38c0	0.24923992
57	0x3d26fae0	0.040766597
58	0xbbbef14d	-0.005827105
59	0xbe1c4395	-0.15260155
60	0x3e2059d5	0.15659268
61	0x3e043049	0.12909044
62	0xbcd52a1c	-0.026021056
63	0x3e1c3418	0.15254247
64	0x3e22789f	0.15866326
65	0xbe105df9	-0.14098348
66	0x3e11c29c	0.14234394
67	0xbe065604	-0.1311875
68	0x3e27cfec	0.1638791
69	0x3e6aaa6c	0.22916573
70	0x3d3d85d9	0.046270225
71	0xbd3d7a5e	-0.046259277
72	0xbe0530dd	-0.13006921
73	0xbcbaede1	-0.022818508
74	0xbd8ffaee	-0.07030283
75	0x3d47f60a	0.048818626
76	0xbc088945	-0.008333509
77	0x3e5486a0	0.2075448
78	0xbcae127d	-0.02124905
79	0xbd347ebb	-0.044066172
80	0xbdba8505	-0.09107403
81	0xbda3d261	-0.07999111
82	0xbdc19f40	-0.09454203
83	0x3e8ff53a	0.2811678
84	0x3d9c7905	0.0764027
85	0x3e7ed662	0.24886468
86	0x3e731d58	0.23741663
87	0x3e8486d9	0.2588413
88	0x3e3b9b74	0.1832102
89	0x3d9f35cb	0.07773932
90	0xbc80d5cb	-0.015726944
91	0x3d4358fc	0.047692284
92	0xbb91c2eb	-0.004448285
93	0x3e3d84a8	0.18507636
94	0x3e465c1a	0.19371071
95	0x3e545819	0.20736732
96	0x3ddaacfe	0.10677527
97	0x3e5bb6bb	0.21456425
98	0x3d8969d5	0.06709639
99	0x3da125af	0.07868516
100	0xbd81b743	-0.063337825
101	0x3e7674c2	0.24067977
102	0xbd40136c	-0.046893522
103	0x3e138602	0.14406589
104	0x3d9bbd6e	0.0760449
105	0xbd74c359	-0.05975661
106	0x3d6948e9	0.0569543
107	0x3d678b07	0.05652907
108	0x3e391dcc	0.18077773
109	0x3a882205	0.0010386115
110	0xbe0440ab	-0.12915294
111	0x3ddfc2bb	0.10925814
112	0x3dd1a870	0.10237205
113	0xbde909c3	-0.11378815
114	0xbcae1ef1	-0.021254988
115	0x3cb9f287	0.022698654
116	0x3e3a4915	0.18191941
117	0x3e373a25	0.17893274
118	0x3e203e33	0.15648727
119	0xbe1f58cb	-0.15561216
120	0x3e4a1ef8	0.19738376
121	0xbe15e65c	-0.14638656
122	0x3d351168	0.044206053
123	0x3dacc885	0.084366836
124	0x3e58af76	0.21160683
125	0xbc1b3e62	-0.009475322
126	0xbd8ca949	-0.06868226
127	0x3e0f3fd7	0.13989197
128	0xbda9800e	-0.082763776
129	0xb7d42304	-2.5288675e-05
130	0x3cf3ba2f	0.029751865
131	0x3db551d9	0.08853502
132	0xbd80ff15	-0.06298653
133	0x3e797905	0.24362572
134	0xbc49a4f3	-0.012307393
135	0x3d62c4e8	0.055363566
136	0x3e3610cf	0.1777985
137	0xbe0573e2	-0.13032487
138	0x3ccba15a	0.024857212
139	0x3d4b9664	0.04970397
140	0x3e5c0906	0.21487817
141	0x3e120a05	0.14261635
142	0x3d1689cf	0.03675252
143	0x3e52a26e	0.20569775
144	0xbdbaa9ee	-0.09114443
145	0x3cde4115	0.027130643
146	0x3e051e40	0.1299982
147	0x3d9e2dd5	0.077235855
148	0x3c48e332	0.012261199
149	0xbcbdbeb2	-0.02316222
150	0xbdc21a87	-0.09477716
151	0x3e3dc9c4	0.18533999
152	0xbe3fa069	-0.18713535
153	0xbd2b66a5	-0.041845936
154	0x3e00da10	0.12583184
155	0xbde55f4c	-0.11199817
156	0x3e38e5af	0.18056367
157	0x3d80e48e	0.06293593
158	0x3e42778f	0.1899092
159	0x3dc7a20e	0.09747706
160	0x3df8232c	0.121160835
161	0xbd2f0876	-0.04273268
162	0x3de7e7eb	0.11323532
163	0xbe03b302	-0.12861255
164	0x3d42c8d9	0.047554825
165	0x3e0ce3bd	0.1375875
166	0x3e02ccd5	0.1277345
167	0x3e1a171e	0.15047881
168	0x3d0fb3d5	0.03508361
169	0xbadd9c64	-0.001690757
170	0x3d987d52	0.07445778
171	0xbdf075c5	-0.11741213
172	0x3e1d4d79	0.15361585
173	0xbd030e75	-0.03199621
174	0xbc6c2d0e	-0.014415039
175	0x3cb9180c	0.022594474
176	0xbc76a5bc	-0.015054163
177	0x3e1a957b	0.15096085
178	0x3cfbb2f8	0.030724987
179	0x3e1a7081	0.1508198
180	0x3e6d7321	0.2318845
181	0xbd102c26	-0.035198353
182	0x3caa5fe2	0.020797674
183	0x3d7cdb77	0.061732735
184	0xbd954a01	-0.07289506
185	0x3e3ebdc8	0.18627083
186	0xbd7c59e4	-0.061609164
187	0xbd2b62a3	-0.041842114
188	0xbd197e34	-0.037473872
189	0xbd0f8d7e	-0.035047047
190	0xbd257092	-0.04039056
191	0xbe568285	-0.20948227
192	0x3c0ab5ac	0.0084661655
193	0xbdcbfe4d	-0.099606134
194	0xbd646a74	-0.055765584
195	0x3e656beb	0.22404449
196	0x3d17d1cf	0.037065323
197	0xbd805c31	-0.06267584
198	0xbd4eda10	-0.05050093
199	0xbd8a3ac2	-0.067494884
200	0x3dca529d	0.098790385
201	0x3d801988	0.0625487
202	0x3e6cf2e7	0.23139535
203	0x3d111d64	0.03542842
204	0xbdee263b	-0.11628386
205	0xbb8417b2	-0.004031145
206	0xbd2c6171	-0.042085115
207	0xbd62e346	-0.055392526
208	0xbd8ad91b	-0.06779691
209	0xbdd6991f	-0.10478424
210	0xbe274ff7	-0.16339098
211	0x3d45186d	0.048118997
212	0x3e0f50e5	0.13995703
213	0x3cad7e7a	0.021178473
214	0x3ccbb96b	0.024868688
215	0x3e017967	0.12643968
216	0x3e592ca9	0.21208443
217	0x3e8b8239	0.2724779
218	0x3e068737	0.13137518
219	0x3dba02a8	0.09082538
220	0x3b9d52f0	0.0048011467
221	0x3d488d46	0.048962854
222	0x3e376dfc	0.1791305
223	0x3e17c3b0	0.14820743
224	0xbc02654e	-0.007958723
225	0x3d9cb0c8	0.07650906
226	0xbd9c04a2	-0.07618071
227	0x3d10a904	0.035317436
228	0x3e62ecca	0.2216064
229	0x3e782ef1	0.24236657
230	0xbd40a73f	-0.0470345
231	0x3bcbdcfb	0.0062214113
232	0xbcd854cb	-0.02640762
233	0x3dcbdca8	0.09954196
234	0xbd28ed47	-0.04124191
235	0x3d9f90a0	0.07791257
236	0x3dc64e6a	0.09682925
237	0x3e370b02	0.17875293
238	0x3d1bf398	0.038074106
239	0xbdd2cd30	-0.10293043
240	0x3d41d183	0.047318947
241	0x3da2a190	0.07940972
242	0xbdfeba45	-0.12437872
243	0xbd92ab74	-0.07161608
244	0x3e0d32b7	0.13788877
245	0x3dd87e10	0.105709195
246	0x3ce74fe2	0.028236333
247	0xbe121095	-0.14264138
248	0x3e3a77ff	0.18209837
249	0x3dafb422	0.085792795
250	0xbe27b27d	-0.16376682
251	0x3dddce39	0.108303495
252	0xbde45ff0	-0.11151111
253	0xbe1c19a8	-0.15244162
254	0x3e095aac	0.13413495
255	0x3d9d166d	0.07670293

sequential/dense_2/MatMul f4 [1, 64]
0	0x3e58077e	0.21096608
1	0x3e76fdc9	0.24120249
2	0xbeb54b5c	-0.35409057
3	0x3e257548	0.1615802
4	0x3dd439e9	0.10362608
5	0xbeb195de	-0.34684652
6	0x3e127af3	0.14304714
7	0xbeadbe4c	-0.33934247
8	0xbeaa69fc	-0.33283985
9	0x3eb922e7	0.3615944
10	0xbf04d317	-0.518846
11	0x3e7ecb68	0.24882281
12	0x3e503975	0.20334418
13	0xbef3e0e9	-0.4763253
14	0x3dc7ea77	0.097615175
15	0x3c8235e9	0.015894847
16	0x3e2657c7	0.16244422
17	0xbe8f0510	-0.2793355
18	0xbe858d04	-0.2608415
19	0x3e2012f1	0.15632226
20	0xbef4c7c6	-0.47808665
21	0xb9a34a77	-0.00031145263
22	0x3e7b8eeb	0.24566238
23	0xbec99439	-0.39370897
24	0xbddb326d	-0.10702977
25	0xbe9b7134	-0.30359805
26	0x3e7e46f8	0.2483176
27	0xbe523f52	-0.20531967
28	0x3d968e3d	0.073513485
29	0xbee1fae2	-0.4413672
30	0xbf046260	-0.5171261
31	0x3e827b06	0.25484484
32	0xbef473d1	-0.4774461
33	0x3da222a8	0.079167664
34	0xbeadd9be	-0.33955187
35	0x3e0ade42	0.13561347
36	0xbe7ff729	-0.24996628
37	0x3e2a5232	0.16632918
38	0x3e50e83c	0.2040109
39	0x3d945c2a	0.072441414
40	0xbe59682d	-0.21231146
41	0xbec55124	-0.38538468
42	0xbeb44cb1	-0.3521476
43	0xbe6765ca	-0.22597423
44	0x3e5d40c2	0.21606734
45	0xbed858d1	-0.42255262
46	0x3e5c85e9	0.21535458
47	0x3e2863ab	0.1644427
48	0x3e50af73	0.20379429
49	0x3e6b3c8b	0.22972314
50	0x3cf197c3	0.029491311
51	0x3e776b34	0.24161988
52	0x3e04842c	0.12941045
53	0x3e0d33ef	0.13789342
54	0xbe984aff	-0.29744717
55	0x3e1e60c4	0.154666
56	0x3e20c5d0	0.1570046
57	0xbd8b6f62	-0.06808354
58	0xbeba06ac	-0.36333215
59	0x3e158bc5	0.14604099
60	0x3ddcc209	0.10779197
61	0xbe826e8f	-0.25474975
62	0xbed729fc	-0.4202422
63	0xbef696a5	-0.48161808

sequential/conv2d/Conv2D f4 [64, 3, 3, 1]
0	0xbe1524c7	-0.1456481
1	0xbd7ce4c0	-0.06174159
2	0xbdc66ce5	-0.09688739
3	0xbdad1160	-0.0845058
4	0xbc56c932	-0.013109492
5	0xbcbff52f	-0.023432342
6	0xbd70fdc8	-0.058835775
7	0x3e3193cc	0.17341536
8	0x3e2f0fd4	0.17095882
9	0x3d5a8917	0.053353395
10	0xbd89b98b	-0.06724843
11	0xbd361cbd	-0.044461
12	0xbd2a0f5a	-0.041518547
13	0xbdc20d66	-0.09475212
14	0xbc52f8bf	-0.0128766885
15	0xbc62eea7	-0.013850844
16	0xbdb730c3	-0.089448474
17	0xbd904192	-0.070437565
18	0x3be07c99	0.0068507907
19	0x3d808aa8	0.062764466
20	0xbceaf0ad	-0.028679216
21	0x3d1ae25b	0.037813526
22	0x3d6a567f	0.057211395
23	0xbd85b861	-0.06529308
24	0xbcc48f02	-0.023993973
25	0xbd5ade48	-0.05343464
26	0x3d39f63b	0.04540084
27	0x3d8ce774	0.06880084
28	0xbda5a8f1	-0.08088864
29	0x3c26a9ab	0.010172288
30	0x3d80e5f4	0.0629386
31	0xbb83e3dd	-0.004024966
32	0xbda368e0	-0.07978988
33	0x3d5842da	0.05279813
34	0xbd67af72	-0.056563802
35	0xbce827d7	-0.02833931
36	0x3bc0977b	0.005877433
37	0xbdd7482d	-0.10511813
38	0x3cd33770	0.02578327
39	0xbda0f22f	-0.07858693
40	0xbdc52de1	-0.09627891
41	0xbddf72b2	-0.10910548
42	0x3d990ade	0.07472776
43	0xbd9a7eec	-0.0754374
44	0xbd297c62	-0.041378386
45	0xbe068d23	-0.13139777
46	0xbd480c84	-0.04884006
47	0xbd50bb14	-0.05095966
48	0xbdae6946	-0.08516173
49	0xbd000fc9	-0.031265054
50	0x3e07ef90	0.1327498
51	0xbd909f85	-0.07061676
52	0xbcc71f03	-0.02430678
53	0x3e0aab7b	0.13541977
54	0xbdabdf43	-0.08392193
55	0xbdbfa8a7	-0.0935834
56	0xbda365ef	-0.07978427
57	0xbd424f95	-0.047439177
58	0xbd91dea0	-0.071225405
59	0xb9ae8739	-0.00033288615
60	0xbd8a395e	-0.06749223
61	0xbb709fa0	-0.0036716238
62	0x3b06ca3a	0.0020567314
63	0xbdd473d3	-0.10373654
64	0x3b4032a5	0.0029327061
65	0xbce758e2	-0.028240625
66	0xbd9fbf88	-0.078002036
67	0xbd9b46b1	-0.07581843
68	0x3d988cf7	0.07448762
69	0xbd558d38	-0.05213663
70	0xbdbae2fa	-0.091253236
71	0xbd372ee8	-0.044722468
72	0xbdd6d0c7	-0.1048904
73	0xbdb18c4e	-0.08669339
74	0x3c463749	0.012098142
75	0xbdca15d7	-0.09867447
76	0x3c11e024	0.008903537
77	0xbd802de2	-0.062587515
78	0xbc4e8cab	-0.01260678
79	0x3da34819	0.07972736
80	0xbd8b6e7b	-0.06808182
81	0x3d537207	0.051622417
82	0x3ce921d7	0.028458519
83	0x3dd2bfd0	0.102904916
84	0xbcc6ae2d	-0.024252975
85	0x3dcf765f	0.10129999
86	0x3d870bbb	0.06594034
87	0x3daabf6a	0.083372906
88	0x3e077cf0	0.13231254
89	0x3d7bdd85	0.061490554
90	0xbd06d25a	-0.03291545
91	0x3a89944c	0.0010496466
92	0x3db6134b	0.088903986
93	0x3d34d1c5	0.044145364
94	0xbd3f8766	-0.046759985
95	0x3dbbb7af	0.09165894
96	0xbd6cae5b	-0.057783466
97	0xbdb66c98	-0.08907431
98	0x3cb2173f	0.0217396
99	0x3d19eb3a	0.037577845
100	0x3da631a5	0.08114938
101	0xbccd2727	-0.025043083
102	0x3db95163	0.090487264
103	0x3dfd7eaf	0.123776786
104	0x3cdd98e7	0.027050449
105	0x3da76112	0.081728116
106	0xbc12319e	-0.0089229625
107	0x3d32d244	0.043657556
108	0xbd604660	-0.054754615
109	0xbc75f08e	-0.015010966
110	0xbcef2608	-0.02919294
111	0xbd1f21fa	-0.038850762
112	0xbc38c082	-0.011276366
113	0xbd969dfc	-0.07354352
114	0xbd9e1b95	-0.077201046
115	0x3d9ac626	0.07557325
116	0xbc00a098	-0.0078507885
117	0xbc31528b	-0.010822902
118	0x3e193197	0.14960323
119	0x3df8e05d	0.12152169
120	0x3d0773f9	0.033069585
121	0x3e2144c7	0.15748893
122	0x3d59b97d	0.05315541
123	0x3d1f2eed	0.03886311
124	0xbc14483e	-0.009050427
125	0x3d457236	0.048204623
126	0xbd1d73de	-0.038440578
127	0xbd5a9cd7	-0.05337223
128	0x3d802d3f	0.0625863
129	0x3c77c02d	0.015121502
130	0xbdd1d4dc	-0.10245678
131	0xbcb80714	-0.022464313
132	0xbd48cae7	-0.049021628
133	0xbd94eb7a	-0.07271476
134	0xbd2085bb	-0.039190035
135	0xbdbfb043	-0.09359791
136	0xbd7bc450	-0.061466515
137	0x3e03610c	0.12829989
138	0xbcb0fa86	-0.021603834
139	0xbdaccc2b	-0.084373794
140	0xbcea7f26	-0.028625082
141	0xbddc0885	-0.107438125
142	0xbdc89a2f	-0.09795033
143	0x3d56030e	0.052249007
144	0x3cc803c5	0.02441586
145	0xbd5ba344	-0.0536225
146	0x3d2325f2	0.03983111
147	0xbdd63cfe	-0.10460852
148	0x3db8826a	0.090092495
149	0x3cf4c155	0.029877344
150	0x3d4f6669	0.050634775
151	0xbde76a47	-0.11299568
152	0xbd7ba984	-0.06144096
153	0x3d89939a	0.06717606
154	0x3c2b92b3	0.010471988
155	0xbda36daf	-0.07979905
156	0xbd144db8	-0.03620693
157	0xbc89d0c6	-0.016823184
158	0xbd73e6d3	-0.059546303
159	0xbd9623e9	-0.07331068
160	0xbe14e0b4	-0.14538842
161	0x3d764314	0.060122564
162	0x3ddb9261	0.10721279
163	0x3d29afa5	0.041427273
164	0xbb47f6f1	-0.0030512179
165	0x3d59b55d	0.053151477
166	0x3e085ae3	0.1331592
167	0x3dc2d7ff	0.09513854
168	0x3dc7685c	0.09736702
169	0x3d578923	0.05262102
170	0x3d833b52	0.06407799
171	0xbd7a4c93	-0.061108183
172	0x3cbba4d7	0.02290575
173	0x3deabf94	0.11462322
174	0x3d828bdb	0.063743316
175	0xbd43e0f5	-0.047821958
176	0x3e1770a3	0.14789061
177	0x3c4c7152	0.01247819
178	0xbd4c19db	-0.049829345
179	0x3ded4d2c	0.11586985
180	0x3defb8b0	0.11705148
181	0x3dbd0a00	0.09230423
182	0xbcaabd1b	-0.020842126
183	0x3dbbf476	0.091774866
184	0x3d92da2f	0.071705215
185	0x3ca03938	0.019558534
186	0x3de9a7dd	0.114089705
187	0x3ddaacf1	0.10677517
188	0xbd540062	-0.051758178
189	0xbdbc824d	-0.092045404
190	0xbe11b2c6	-0.14228353
191	0xbdd27aaf	-0.10277306
192	0x3c562d73	0.013072359
193	0xbc7332d8	-0.014843665
194	0xbdd311b0	-0.10306108
195	0x3e17727d	0.14789768
196	0x3c24722f	0.010036989
197	0x3dc8e198	0.098086536
198	0x3d291c00	0.04128647
199	0xbd6118f4	-0.054955438
200	0xbdfcec3e	-0.12349747
201	0x3e0e4aef	0.13895772
202	0xbd1ae9a1	-0.037820462
203	0xbe0278a4	-0.12741333
204	0x3aaad8e9	0.0013034615
205	0x3d75ed71	0.060040895
206	0xbdddbbac	-0.10826811
207	0x3d09c304	0.033633247
208	0xbda167c3	-0.07881119
209	0xbdbf1483	-0.09330084
210	0xbb318f1c	-0.0027093356
211	0xbdc2456f	-0.094859
212	0xbdc10187	-0.094241194
213	0xbd477a48	-0.0487006
214	0x3d7708e5	0.060311217
215	0x3be7937c	0.007067142
216	0x3d7eb3f2	0.062183328
217	0xbcb3363e	-0.02187645
218	0xbdfc2c7f	-0.123131745
219	0xbd983168	-0.074312985
220	0xbddcf569	-0.10788996
221	0xbdcdbbe7	-0.10045605
222	0x3cad1801	0.02112961
223	0xbe29d9c6	-0.1658698
224	0xbd1d1cfc	-0.03835772
225	0xbd957858	-0.072983444
226	0x3bcb5102	0.0062047252
227	0xbd85a00c	-0.06524667
228	0x3ce10fe4	0.027473398
229	0xbd97b3b2	-0.07407321
230	0x3dad066e	0.08448492
231	0x3b3c02f9	0.0028688295
232	0xbd2bac46	-0.04191234
233	0xbd926cc2	-0.0714965
234	0x3b261b4c	0.002534586
235	0x3e05762f	0.13033365
236	0x3dd54292	0.10413088
237	0x3de6661c	0.112499446
238	0x3de930e4	0.11386278
239	0x3dd5fe38	0.10448879
240	0xbd6e00d6	-0.058106266
241	0x3d594b95	0.053050596
242	0xbab3e1aa	-0.0013723869
243	0xbd9045fe	-0.070446
244	0xbd99a998	-0.075030506
245	0x3ba4f69a	0.00503428
246	0xbc6c2380	-0.014412761
247	0x3d4d7c67	0.050167467
248	0xbd47706f	-0.04869121
249	0xbc836519	-0.016039418
250	0x3b3b3d50	0.002857048
251	0x3da7df67	0.081969075
252	0xbcfbfe18	-0.03076081
253	0xbe0ab0a6	-0.13543949
254	0xbe1217c9	-0.14266886
255	0xbce33ab2	-0.027737949

sequential/conv2d_1/Conv2D f4 [32, 3, 3, 64]
0	0xbd05d3ce	-0.032672696
1	0x3d630840	0.05542779
2	0xbb8bf7b5	-0.0042714723
3	0xbd3b0cfc	-0.04566668
4	0xbd38095c	-0.0449308
5	0xbd18119b	-0.037126165
6	0xbd6bb006	-0.057540916
7	0xbb6a61b4	-0.0035763802
8	0xbd81bbf8	-0.0633468
9	0xbd56fbb3	-0.052486133
10	0x3c3414d5	0.010991295
11	0x3cf1d0e7	0.029518558
12	0x3d18122a	0.037126698
13	0xbcc232b5	-0.02370582
14	0x3d61453d	0.05499767
15	0xbdeb66df	-0.114942305
16	0xbc917438	-0.017755613
17	0xbca10a54	-0.019658245
18	0x3cc1a772	0.023639414
19	0xbda68277	-0.08130353
20	0x3d1da33a	0.038485743
21	0xbc870df8	-0.016486153
22	0x3d1b5a9c	0.03792821
23	0x3d1d6fb8	0.03843662
24	0x3d08efd6	0.03343185
25	0xbd9e4628	-0.07728225
26	0x3d11d400	0.03560257
27	0xbcb37500	-0.021906376
28	0xba65e7d4	-0.0008770202
29	0xbd68c930	-0.056832492
30	0xbbd14b20	-0.0063871294
31	0x3d55d30a	0.052203216
32	0xbd2421d5	-0.040071327
33	0xbd2a52b3	-0.041582774
34	0xbd5f05ac	-0.05444877
35	0x3cd5113b	0.026009193
36	0xbdb7b098	-0.089692295
37	0x3d20b2cd	0.039233018
38	0xbcc6c261	-0.024262609
39	0x3d1be19b	0.03805695
40	0x3cc3e7ae	0.023914184
41	0xbda9f1af	-0.082980506
42	0xbc488eff	-0.012241124
43	0xbc9c74c5	-0.019098649
44	0xbe15c48a	-0.14625755
45	0x3b83985c	0.0040159654
46	0xbd59b3f8	-0.053150147
47	0xbd1288b6	-0.03577491
48	0xbc879ec3	-0.016555196
49	0x3d026dd5	0.031843025
50	0x3c951d80	0.018202543
51	0xbcb61747	-0.022227896
52	0x3d862233	0.06549492
53	0xbd6a8351	-0.05725414
54	0xbc1975d7	-0.009366474
55	0x3cb3ec7d	0.021963352
56	0x3c8b7793	0.01702479
57	0x3d9633bc	0.07334086
58	0xbd0b747a	-0.034046628
59	0x3d4913f9	0.049091313
60	0x3d8a7596	0.06760709
61	0x3ccb332d	0.024804676
62	0xbcd43c0f	-0.025907544
63	0xbdad7c4d	-0.08470974
64	0xb869b26a	-5.571769e-05
65	0xbd3a1fab	-0.045440357
66	0x3d664cf0	0.056225717
67	0xbce2f0a5	-0.027702639
68	0x3d1d6b59	0.038432453
69	0xbd64419d	-0.055726636
70	0x3d7e9012	0.062149115
71	0x3d32431e	0.04352104
72	0xbd81004b	-0.06298884
73	0x3d2dccf1	0.042431775
74	0x3d90e796	0.070754215
75	0x3c950bf5	0.018194178
76	0xba9d1221	-0.0011983552
77	0x3ccdccdf	0.025122104
78	0xbda68eec	-0.08132729
79	0xbdd21d68	-0.10259515
80	0xbd148f34	-0.03626938
81	0xbda341d3	-0.07971539
82	0xbdc0528c	-0.093907446
83	0x3d1dae37	0.038496222
84	0xbdb16dd7	-0.086635284
85	0xbdad0a2d	-0.084492065
86	0xbd8d2cde	-0.06893323
87	0x3d93baca	0.072133616
88	0xbd1dc2ae	-0.03851574
89	0xbd0034f4	-0.0313005
90	0x3d63e3f4	0.055637315
91	0xbd36011e	-0.04443466
92	0x3d1189d6	0.03553184
93	0x3d3c44a1	0.045963887
94	0x3cab097e	0.02087855
95	0x3d68cccf	0.056835946
96	0xbc4f3d8a	-0.012648949
97	0x3d662c3f	0.05619454
98	0xbd322be2	-0.04349888
99	0x3c9d540a	0.019205112
100	0xbd9f9fc4	-0.07794145
101	0x3d8d8d95	0.0691177
102	0x3bfdc25d	0.007744117
103	0xbdd47f53	-0.10375848
104	0xbc0918f5	-0.008367767
105	0xbde6db20	-0.112722635
106	0xbd392acd	-0.045206834
107	0xbc9226e5	-0.017840812
108	0xbdafc8a6	-0.085831925
109	0xbd182a8f	-0.037149962
110	0xbda8ee36	-0.0824856
111	0x3d2327da	0.039832927
112	0x3c23791f	0.009977608
113	0x3d5ef042	0.054428346
114	0xbde0c502	-0.10975076
115	0xbce4d754	-0.027934708
116	0x3d4644d9	0.048405502
117	0xbd59c98a	-0.05317072
118	0x3d57fe0f	0.052732524
119	0xbd7081f0	-0.058717668
120	0xbd4ad481	-0.049519066
121	0x3d16e295	0.03683718
122	0xbd00e8df	-0.031472083
123	0xbd86eee8	-0.065885365
124	0x3d88faad	0.066884376
125	0xbc482743	-0.012216392
126	0xbcd5ad7a	-0.026083697
127	0xbd18de46	-0.03732135
128	0xbd40de8a	-0.04708723
129	0xbda957b4	-0.08268681
130	0xbd4a8c3e	-0.04945015
131	0x3cfdc155	0.030975977
132	0x3d85a1fb	0.06525036
133	0x3b370967	0.0027929188
134	0xbd4d4200	-0.05011177
135	0x3d872dbf	0.06600522
136	0xbc791552	-0.015202837
137	0x3d77e9d2	0.060525723
138	0x3c4be540	0.012444794
139	0xbdbbf191	-0.091769345
140	0xbcd529fd	-0.026020998
141	0xbdb5a1e5	-0.088687696
142	0xbc8cf791	-0.017207893
143	0x3b6db325	0.0036270109
144	0x3ceaf191	0.028679641
145	0xbd0c86e5	-0.034308333
146	0x3cf027e8	0.029315904
147	0xbd828c68	-0.063744366
148	0x3d82068d	0.06348906
149	0xbc9f42c8	-0.019441023
150	0x3c63a65b	0.013894643
151	0x3d5ce543	0.05392958
152	0x3d457b55	0.04821332
153	0xbaca7f13	-0.0015449248
154	0x3d89fbd2	0.06737484
155	0xbcc2ff20	-0.023803294
156	0x3d4600ad	0.04834049
157	0xbd1fd8ff	-0.039025303
158	0xbcb85632	-0.022502039
159	0x3c53f042	0.0129357
160	0xbde7e930	-0.11323774
161	0xbda111c8	-0.0786472
162	0x3ce0ca1d	0.027440125
163	0x3c06e3fd	0.008233068
164	0xbdd2c560	-0.102915525
165	0xba28b8e7	-0.0006436244
166	0x3c46e528	0.012139596
167	0x3c6513bf	0.013981759
168	0xbd7e3bb1	-0.062068645
169	0xbcd6b53e	-0.02620947
170	0xbcad3857	-0.021145029
171	0xbd2fa3c0	-0.042880774
172	0xbb76503d	-0.0037584447
173	0xbd0eacf0	-0.034832895
174	0x3d51b2f3	0.05119605
175	0x3cd3ef1f	0.025870858
176	0xbd6b19d0	-0.057397664
177	0xbdb049c6	-0.08607821
178	0xbd1061bc	-0.035249457
179	0xbcdf3498	-0.027246758
180	0x3caed931	0.0213438
181	0xbd9aae00	-0.07552719
182	0xbd10e9f0	-0.03537935
183	0x3d7e35d9	0.062063072
184	0x3c980263	0.018555826
185	0xbb79ff52	-0.0038146568
186	0x3d61ce81	0.055128578
187	0xbdc7f656	-0.09763782
188	0xbdbcd456	-0.09220187
189	0xbd269882	-0.040672787
190	0xbdd6da84	-0.10490897
191	0x3c06ba7e	0.008223174
192	0x3cc84096	0.02444486
193	0x3bcabc9f	0.006187036
194	0xbda89f25	-0.082334794
195	0xbd6bf262	-0.0576042
196	0xbd90dc2e	-0.07073246
197	0xbe0d16e9	-0.13778271
198	0xbd0e088b	-0.034676116
199	0xbc5473fd	-0.012967107
200	0xbdb35f69	-0.087584324
201	0xbd7dfd53	-0.062009167
202	0x3d681792	0.056663103
203	0xbd69f4ac	-0.057118103
204	0x3da401e6	0.080081746
205	0x3d617b41	0.055049185
206	0xbd35921d	-0.044328798
207	0xbdc42f54	-0.095793396
208	0x3c649e0f	0.0139537
209	0xbd731960	-0.05935037
210	0xbcbc68bb	-0.022999158
211	0xbc6b7796	-0.014371773
212	0xbd3b47b6	-0.045722686
213	0xbccb11c4	-0.024788745
214	0xbd908219	-0.07056064
215	0xbd0b03a3	-0.033939015
216	0xbda95ab9	-0.08269257
217	0x3d57c8cc	0.05268173
218	0x3c48297d	0.012216923
219	0xbd8ced65	-0.06881217
220	0xbd832df5	-0.0640525
221	0x3d41d8fc	0.047326073
222	0xbbab4a9e	-0.005227401
223	0xbc871ed3	-0.01649419
224	0xbd91c906	-0.0711842
225	0x3cf9d33c	0.030496232
226	0x3a9ac975	0.0011809306
227	0xbd344c48	-0.04401806
228	0xbb532acd	-0.0032221556
229	0x3d45a74d	0.048255254
230	0xba19197f	-0.0005840286
231	0xbdd33505	-0.10312847
232	0x3d96229c	0.0733082
233	0xbde2813d	-0.110598065
234	0x3d57b54c	0.052663133
235	0x3d1fa639	0.03897688
236	0xbe1ea34d	-0.15491982
237	0xbd58003c	-0.0527346
238	0xbc3d7d38	-0.011565499
239	0xbd1121e4	-0.03543271
240	0xbe008a4e	-0.12552759
241	0x3ccbfc78	0.02490066
242	0xbb6d464f	-0.0036205237
243	0xbd255a2c	-0.040369198
244	0x3bb27ee7	0.005447257
245	0x3c5ced76	0.0134843495
246	0xbcebde5d	-0.028792555
247	0x3d89dd40	0.06731653
248	0xbd483375	-0.0488772
249	0xbcb332b0	-0.021874756
250	0x3c52f9b4	0.012876917
251	0xbce09798	-0.027416036
252	0xbd109a97	-0.03530368
253	0xbd4f20f7	-0.050568547
254	0xbd1c88b8	-0.038216323
255	0xbdefa3c4	-0.11701158

sequential/conv2d_2/Conv2D f4 [32, 3, 3, 32]
0	0xbc96d72d	-0.01841315
1	0xbd12b279	-0.035814736
2	0xbca443b7	-0.02005182
3	0x3d94e63b	0.072704755
4	0xbe1dd157	-0.15411888
5	0x3dc5ff4f	0.09667837
6	0xbe0ae5e5	-0.1356426
7	0x3e61d390	0.22053361
8	0xbc7db6df	-0.015485494
9	0xbe1b03df	-0.15138195
10	0x3e492064	0.19641262
11	0x3d89da9f	0.06731152
12	0xbe3bdfc1	-0.18347074
13	0x3bc7fcdd	0.0061031417
14	0x3d0f5c42	0.035000093
15	0x3e057f47	0.13036834
16	0xbda40acf	-0.08009874
17	0xbc35c06a	-0.011093238
18	0x3e198993	0.14993887
19	0xbda9b09e	-0.0828564
20	0xbc3c9379	-0.01150977
21	0x3c8655fb	0.01639842
22	0xbcaefbe2	-0.021360341
23	0x3dbf9319	0.093542285
24	0x3e1e9cd6	0.15489516
25	0x3ca13a06	0.019680988
26	0x3e1e167f	0.15438269
27	0x3da0d4b1	0.07853068
28	0x3d732147	0.059357908
29	0x3dcf097e	0.10109232
30	0x3e5baef8	0.21453464
31	0x3cf81cf3	0.030287242
32	0x3cf8964d	0.030345106
33	0x3dc93485	0.098244704
34	0xbe15b244	-0.14618784
35	0x3d9965ea	0.07490142
36	0xbdb2cb68	-0.08730203
37	0xbd7b8a75	-0.06141134
38	0xbcb9e557	-0.022692366
39	0x3df3c710	0.119032025
40	0x3d82d265	0.06387786
41	0xbe438e2a	-0.190972
42	0x3ce32419	0.027727174
43	0xbdf7c95c	-0.12098953
44	0xbe28ceb2	-0.16485098
45	0x3d991ac3	0.074758075
46	0x3d309610	0.04311186
47	0x3db22b11	0.086996205
48	0xbd8a33db	-0.06748172
49	0xbc2fec2e	-0.010737462
50	0x3df66f4b	0.12032946
51	0xbd94f6a3	-0.07273605
52	0xbc88cd29	-0.01669939
53	0x3d6be9d2	0.057596035
54	0xbd70ba68	-0.05877152
55	0xbdc90c30	-0.09816778
56	0xbd2a79bb	-0.041619997
57	0x3ce298af	0.027660696
58	0x3dbf2b2a	0.09334405
59	0x3e10acb7	0.14128385
60	0x3dd7ee8c	0.10543546
61	0x3d30caae	0.04316204
62	0x3d0364ac	0.03207843
63	0xbda45952	-0.08024849
64	0x3d66a3d5	0.056308586
65	0xbd377334	-0.0447876
66	0x3d8f462c	0.06995806
67	0xbcf7ef3a	-0.03026544
68	0xbce51c0a	-0.027967472
69	0x3dc0a933	0.09407272
70	0x3d1e852d	0.038701225
71	0xbc3b0377	-0.0114144
72	0x3d9b02a7	0.07568865
73	0xbd5324d9	-0.051548813
74	0x3dd899ec	0.10576233
75	0xbdc09deb	-0.094051205
76	0x3bd088e9	0.006363977
77	0x3d5c1da3	0.0537392
78	0xbdf74105	-0.12072948
79	0x3d9ac3dd	0.07556889
80	0xbd938665	-0.07203368
81	0xbd82cdce	-0.063869104
82	0x3ce71c3a	0.028211702
83	0xbd5c23c4	-0.053745046
84	0x3de3a20e	0.11114894
85	0x3d2bab20	0.041911244
86	0xbd5bfa66	-0.053705595
87	0xbd73ab2e	-0.05948942
88	0xbca30679	-0.019900547
89	0xbdc11364	-0.094275266
90	0x3c8e0645	0.017336974
91	0xbdad73cd	-0.08469353
92	0x3d9472b2	0.07248439
93	0xbd1454b8	-0.036213607
94	0x3e490ef8	0.19634616
95	0xbcb8d5d8	-0.022562906
96	0x3df1bdb1	0.11803759
97	0x3cccf4f4	0.025019147
98	0xbdd145e5	-0.102184094
99	0xbc7d0cd9	-0.015444958
100	0xbe39da97	-0.18149792
101	0x3d8d0006	0.0688477
102	0xbdff71a2	-0.124728456
103	0xbdc9f53c	-0.09861228
104	0x3d9fa97b	0.07795998
105	0xbe3784e7	-0.17921792
106	0xbde7c5bf	-0.11317014
107	0xbd443960	-0.04790628
108	0xbe1f56bd	-0.15560432
109	0x3d299791	0.04140431
110	0x3df4dbfc	0.11956021
111	0x3e3ac0f5	0.1823767
112	0xbd8f5f9f	-0.0700066
113	0x3d5e69ae	0.054300003
114	0xbe066787	-0.1312543
115	0x3ce2f816	0.027706187
116	0x3dbc31de	0.09189199
117	0xbda9d196	-0.082919285
118	0x3c7edf18	0.015556119
119	0x3d04efbc	0.03245519
120	0xbdda1fbb	-0.10650583
121	0xbd94f36e	-0.07272993
122	0xbac6d2b1	-0.0015168992
123	0x3cb823d3	0.02247802
124	0x3d825ce7	0.06365376
125	0x3dcd7a8c	0.100331396
126	0xbe55a352	-0.20863083
127	0xbd81fe98	-0.06347388
128	0x3cc65c59	0.024213957
129	0xbd9124e9	-0.07087118
130	0xbe85a496	-0.26102132
131	0xbcfa15c7	-0.030527962
132	0xbe201097	-0.15631329
133	0x3e0f9abe	0.14023873
134	0xbdbc41b5	-0.0919222
135	0xbe11f7e8	-0.14254725
136	0x3e2415b5	0.16023906
137	0xbdc64ec7	-0.09682994
138	0xbe4ce1cf	-0.20008014
139	0xbe77d989	-0.24204077
140	0xbe6398b5	-0.22226222
141	0x3d54747c	0.0518689
142	0x3dec0366	0.11524086
143	0x3cf99a6f	0.030469147
144	0xbd9831ee	-0.07431398
145	0xbdde6ca7	-0.108605675
146	0xbe011e4c	-0.12609214
147	0x3da741ef	0.08166873
148	0x3c2dfc52	0.01061924
149	0xbe03ac6d	-0.12858744
150	0x3d7e2f39	0.062056754
151	0x3e137b92	0.14402607
152	0xbe144de0	-0.14482832
153	0x3dd782f3	0.105230235
154	0xbdc44517	-0.0958349
155	0xbc59822b	-0.013275663
156	0x3ddf5ae4	0.10906008
157	0x3bf11980	0.007357776
158	0xbe5da997	-0.21646725
159	0xbdd2a1e1	-0.10284782
160	0x3e15e6d3	0.14638834
161	0x3d981e7c	0.074276894
162	0xbdfb2d0b	-0.12264451
163	0xbdb05f6b	-0.086119495
164	0xbdc8bb94	-0.09801403
165	0x3d619698	0.055075258
166	0xbaad938c	-0.0013242825
167	0xbdc6bd9e	-0.09704135
168	0x3ce26f98	0.027641103
169	0xbe02afd2	-0.12762383
170	0xbd9ededd	-0.077573515
171	0xbdd1d8c0	-0.1024642
172	0xbd16502c	-0.03669755
173	0xbd22b417	-0.03972253
174	0x3dccf503	0.1000767
175	0x3e0cf751	0.13766219
176	0x3da608ad	0.081071235
177	0xbd62cab8	-0.05536911
178	0xbe0c74eb	-0.13716476
179	0xbc35ffc5	-0.0111083435
180	0x3dbb7eed	0.091550685
181	0xbe66ffdb	-0.22558539
182	0x3de9879c	0.114028186
183	0x3ddbd1c2	0.107333675
184	0xbe3e388b	-0.18576257
185	0x399be07e	0.00029731164
186	0xbd2cdb13	-0.042201113
187	0xbd906113	-0.070497654
188	0x3dfa8bc0	0.122336864
189	0x3cb627a0	0.022235692
190	0xbe3165f6	-0.17324051
191	0xbdaf7ec3	-0.085691
192	0xbc81e74e	-0.015857365
193	0x3d33cf66	0.043898962
194	0x3d4ffa73	0.050775956
195	0xbd51e770	-0.051246107
196	0x3e0d1cf4	0.13780576
197	0x3d196a11	0.03745467
198	0xbd54ec29	-0.051983032
199	0xbaf2a51c	-0.0018512341
200	0x3d74dc2e	0.059780292
201	0x3def4853	0.116837166
202	0x3c821779	0.015880333
203	0xbc2b763a	-0.010465199
204	0x3dcfc640	0.10145235
205	0x3d1bef63	0.038070094
206	0xbd2f5cfe	-0.042813294
207	0xbcd786d3	-0.026309406
208	0xbd3e2658	-0.046423286
209	0x3e40134e	0.18757364
210	0x3ce52fe3	0.027976936
211	0x3d7581b1	0.059938136
212	0xbac86d28	-0.001529132
213	0xbd6679c2	-0.05626846
214	0x3df7c4f3	0.12098112
215	0x3d6db62d	0.058035064
216	0x3c12f10c	0.008968603
217	0x3dde3fe5	0.10852031
218	0x3a14dc21	0.0005678554
219	0x3e1fcab9	0.15604676
220	0xbc5c5deb	-0.013450126
221	0xbdb38bb9	-0.08766884
222	0x3e1534e7	0.14570962
223	0x3d30346d	0.043018747
224	0x3db91476	0.09037106
225	0xbd9c1905	-0.076219596
226	0x3dc6e94f	0.09712469
227	0xbd942fe5	-0.07235698
228	0x3da357cd	0.07975731
229	0xbd84b9be	-0.0648074
230	0xbc681169	-0.014164307
231	0x3db43ae8	0.08800298
232	0xbc3fed6b	-0.01171432
233	0x3e203cb8	0.15648162
234	0xbdd14ce3	-0.10219743
235	0xbd352561	-0.0442251
236	0xbb33c305	-0.0027429473
237	0xbd9f7a92	-0.0778705
238	0x3a9612f5	0.0011449741
239	0xbd0d890e	-0.034554534
240	0x3c2faca0	0.010722309
241	0x3d89ede2	0.06734826
242	0x3d4a80d5	0.04943927
243	0xbb32ae4d	-0.0027264536
244	0xbcd98f78	-0.026557669
245	0xbdf56782	-0.11982633
246	0x3d9679d3	0.07347455
247	0xbc49bb7e	-0.012312768
248	0xbc427618	-0.011868976
249	0x3d1b7529	0.03795353
250	0xbd516267	-0.051119234
251	0x3da43e4d	0.080196954
252	0x3d375427	0.04475799
253	0xbda22c37	-0.079185896
254	0x3d373648	0.0447295
255	0x3d680728	0.05664745
